…
locks of code in the cell above, what do you think each is doing? It&#39;s okay if you&#39;re not sure, we&#39;ll go through this soon. In the meantime, spend 10-minutes playing around the incredible CNN explainer website. What do you notice about the layer names at the top of the webpage? . Since we&#39;ve already fit a model, let&#39;s check out its architecture. . model_1.summary() . Model: &#34;sequential&#34; _________________________________________________________________ Layer (type) Output Shape Param # ================================================================= conv2d (Conv2D) (None, 222, 222, 10) 280 _________________________________________________________________ conv2d_1 (Conv2D) (None, 220, 220, 10) 910 _________________________________________________________________ max_pooling2d (MaxPooling2D) (None, 110, 110, 10) 0 _________________________________________________________________ conv2d_2 (Conv2D) (None, 108, 108, 10) 910 _________________________________________________________________ conv2d_3 (Conv2D) (None, 106, 106, 10) 910 _________________________________________________________________ max_pooling2d_1 (MaxPooling2 (None, 53, 53, 10) 0 _________________________________________________________________ flatten (Flatten) (None, 28090) 0 _________________________________________________________________ dense (Dense) (None, 1) 28091 ================================================================= Total params: 31,101 Trainable params: 31,101 Non-trainable params: 0 _________________________________________________________________ . What do you notice about the names of model_1&#39;s layers and the layer names at the top of the CNN explainer website? . I&#39;ll let you in on a little secret: we&#39;ve replicated the exact ar
…
ccuracy: 0.7563 - val_loss: 0.5009 - val_accuracy: 0.7580 Epoch 5/5 47/47 [==============================] - 8s 178ms/step - loss: 0.4894 - accuracy: 0.7908 - val_loss: 0.4503 - val_accuracy: 0.7940 . Woah! Looks like our model is learning again. It got ~70% accuracy on the training set and ~70% accuracy on the validation set. . How does the architecute look? . model_3.summary() . Model: &#34;sequential_2&#34; _________________________________________________________________ Layer (type) Output Shape Param # ================================================================= flatten_2 (Flatten) (None, 150528) 0 _________________________________________________________________ dense_4 (Dense) (None, 100) 15052900 _________________________________________________________________ dense_5 (Dense) (None, 100) 10100 _________________________________________________________________ dense_6 (Dense) (None, 100) 10100 _________________________________________________________________ dense_7 (Dense) (None, 1) 101 ================================================================= Total params: 15,073,201 Trainable params: 15,073,201 Non-trainable params: 0 _________________________________________________________________ . My gosh, the number of trainable parameters has increased even more than model_2. And even with close to 500x (~15,000,000 vs. ~31,000) more trainable parameters, model_3 still doesn&#39;
…
tle(&#39;Accuracy&#39;) plt.xlabel(&#39;Epochs&#39;) plt.legend(); . plot_loss_curves(history_4) . The ideal position for these two curves is to follow each other. If anything, the validation curve should be slightly under the training curve. If there&#39;s a large gap between the training curve and validation curve, it means your model is probably overfitting. . model_4.summary() . Model: &#34;sequential_3&#34; _________________________________________________________________ Layer (type) Output Shape Param # ================================================================= conv2d_4 (Conv2D) (None, 222, 222, 10) 280 _________________________________________________________________ conv2d_5 (Conv2D) (None, 220, 220, 10) 910 _________________________________________________________________ conv2d_6 (Conv2D) (None, 218, 218, 10) 910 _________________________________________________________________ flatten_3 (Flatten) (None, 475240) 0 _________________________________________________________________ dense_8 (Dense) (None, 1) 475241 ================================================================= Total params: 477,341 Trainable params: 477,341 Non-trainable params: 0 _________________________________________________________________ . 6. Adjust the model parameters . Fitting a machine learning model comes in 3 steps: . Create a basline. | Beat the baseline by overfitting a larger model. | Reduce overfitting. | So far we&#39;
…
y: 0.8680 Epoch 5/5 47/47 [==============================] - 9s 182ms/step - loss: 0.3684 - accuracy: 0.8543 - val_loss: 0.3235 - val_accuracy: 0.8500 . Okay, it looks like our model with max pooling (model_5) is performing worse on the training set but better on the validation set. . Before we checkout its training curves, let&#39;s check out its architecture. . model_5.summary() . Model: &#34;sequential_4&#34; _________________________________________________________________ Layer (type) Output Shape Param # ================================================================= conv2d_7 (Conv2D) (None, 222, 222, 10) 280 _________________________________________________________________ max_pooling2d_2 (MaxPooling2 (None, 111, 111, 10) 0 _________________________________________________________________ conv2d_8 (Conv2D) (None, 109, 109, 10) 910 _________________________________________________________________ max_pooling2d_3 (MaxPooling2 (None, 54, 54, 10) 0 _________________________________________________________________ conv2d_9 (Conv2D) (None, 52, 52, 10) 910 _________________________________________________________________ max_pooling2d_4 (MaxPooling2 (None, 26, 26, 10) 0 _________________________________________________________________ flatten_4 (Flatten) (None, 6760) 0 _________________________________________________________________ dense_9 (Dense) (None, 1) 6761 ================================================================= Total params: 8,861 Trainable params: 8,861 Non-trainable params: 0 _________________________________________________________________ . Do you notice what&#39;s going on here with the output shape in each MaxPooling2D layer? . It gets halved each time. This is effectively the MaxPooling2D layer taking the outputs of each Conv2D lay
…
: 0.7873 - val_loss: 0.3686 - val_accuracy: 0.8240 . 🔑 Note: You might&#39;ve noticed we used some slightly different code to build model_8 as compared to model_1. This is because of the imports we did before, such as from tensorflow.keras.layers import Conv2D reduce the amount of code we had to write. Although the code is different, the architectures are the same. . model_1.summary() . Model: &#34;sequential&#34; _________________________________________________________________ Layer (type) Output Shape Param # ================================================================= conv2d (Conv2D) (None, 222, 222, 10) 280 _________________________________________________________________ conv2d_1 (Conv2D) (None, 220, 220, 10) 910 _________________________________________________________________ max_pooling2d (MaxPooling2D) (None, 110, 110, 10) 0 _________________________________________________________________ conv2d_2 (Conv2D) (None, 108, 108, 10) 910 _________________________________________________________________ conv2d_3 (Conv2D) (None, 106, 106, 10) 910 _________________________________________________________________ max_pooling2d_1 (MaxPooling2 (None, 53, 53, 10) 0 _________________________________________________________________ flatten (Flatten) (None, 28090) 0 _________________________________________________________________ dense (Dense) (None, 1) 28091 ================================================================= Total params: 31,101 Trainable params: 31,101 Non-trainable params: 0 _________________________________________________________________ . model_8.summary() . Model: &#34;sequential_8&#34; _________________________________________________________________ Layer (type) Output Shape Param # ================================================================= conv2d_19 (Conv2D) (None, 222, 222, 10) 280 _________________________________________________________________ conv2d_20 (Conv2D) (None, 220, 220, 10) 910 _________________________________________________________________ max_pooling2d_14 (MaxPooling (None, 110, 110, 10) 0 _________________________________________________________________ conv2d_21 (Conv2D) (None, 108, 108, 10) 910 _________________________________________________________________ conv2d_22 (Conv2D) (None, 106, 106, 10) 910 _________________________________________________________________ max_pooling2d_15 (MaxPooling (None, 53, 53, 10) 0 _________________________________________________________________ flatten_8 (Flatten) (None, 28090) 0 _________________________________________________________________ dense_13 (Dense) (None, 1) 28091 ================================================================= Total params: 31,101 Trainable params: 31,101 Non-trainable params: 0 _________________________________________________________________ . Now let&#39;s check out our TinyVGG model&#39;s performance. . plot_loss_curves(history_8) . plot_loss_curves(history_1) . Hmm, our training curves are looking good, but our model&#39;s performan
…
